merge_model_quant.tflite (tflite, 77888 bytes, 3 tensors)

MatMul_2 i1 [5, 256] scale=0.04024035 zero_point=0
00000000: e200 00d0 153c 0c03 1bd0 c330 eaca b503
00000010: 3bf4 1518 00ca 1afc fe21 dfed ebde 0100
00000020: fd19 e001 43e3 0fda fbd3 12ed c119 2f1a
00000030: 23c4 ed1a d9a8 0002 3f00 e808 00e5 c0f9
00000040: f050 0810 182c 1100 b011 060f ac00 0718
00000050: 1722 25ce 05f8 2606 0e01 20f0 0609 010c
00000060: e2e2 ec04 d2c9 00b5 fd4b 0023 001c ffc9
00000070: b8ff b301 1c22 ff89 a936 c62a b841 f015
00000080: c2fc 092d 0a0b 27ea 0000 c40b c8f6 0113
00000090: c602 1134 e10a dfff ecd3 c706 082a de0f
000000a0: 0c2c a119 06d4 f2db 011a 1ebb c600 a520
000000b0: 9a16 ffff abcd 25e2 e327 fffe 01ec 1301
000000c0: 00f2 ba0f 100e b6ff cad7 0f3b 00f1 00c0
000000d0: 2e01 1feb 1c22 eea9 22ff 0113 2c30 f726
000000e0: 0009 f83f 0814 e000 e19b 2625 dcff d509
000000f0: 0e07 3504 16c6 bdd1 fe36 011b cef7 f2b7
-1.2072105 0.0 0.0 -1.9315369 0.84504735 2.414421 0.48288423 0.12072106
1.0864894 -1.9315369 -2.4546614 1.9315369 -0.8852877 -2.1729789 -3.0180264 0.12072106
2.3741808 -0.48288423 0.84504735 0.96576846 0.0 -2.1729789 1.0462492 -0.1609614
-0.0804807 1.3279316 -1.3279316 -0.76456666 -0.84504735 -1.3681719 0.04024035 0.0
-0.12072106 1.0060087 -1.2876912 0.04024035 2.6961036 -1.1669701 0.6036053 -1.5291333
-0.20120175 -1.8108158 0.7243263 -0.76456666 -2.5351422 1.0060087 1.8912965 1.0462492
1.4084123 -2.414421 -0.76456666 1.0462492 -1.5693737 -3.5411508 0.0 0.0804807
2.5351422 0.0 -0.96576846 0.3219228 0.0 -1.0864894 -2.5753825 -0.28168246
-0.6438456 3.219228 0.3219228 0.6438456 0.96576846 1.7705754 0.68408597 0.0
-3.219228 0.68408597 0.24144211 0.6036053 -3.3801894 0.0 0.28168246 0.96576846
0.92552805 1.3681719 1.488893 -2.0120175 0.20120175 -0.3219228 1.5291333 0.24144211
0.5633649 0.04024035 1.2876912 -0.6438456 0.24144211 0.36216316 0.04024035 0.48288423
-1.2072105 -1.2072105 -0.804807 0.1609614 -1.8510561 -2.2132194 0.0 -3.0180264
-0.12072106 3.0180264 0.0 1.4084123 0.0 1.1267298 -0.04024035 -2.2132194
-2.8973053 -0.04024035 -3.098507 0.04024035 1.1267298 1.3681719 -0.04024035 -4.788602
-3.5009105 2.1729789 -2.3339403 1.6900947 -2.8973053 2.6156228 -0.6438456 0.84504735
-2.4949017 -0.1609614 0.36216316 1.8108158 0.4024035 0.44264385 1.5693737 -0.8852877
0.0 0.0 -2.414421 0.44264385 -2.2534597 -0.4024035 0.04024035 0.76456666
-2.3339403 0.0804807 0.68408597 2.0924983 -1.2474508 0.4024035 -1.3279316 -0.04024035
-0.804807 -1.8108158 -2.2937 0.24144211 0.3219228 1.6900947 -1.3681719 0.6036053
0.48288423 1.7705754 -3.8228333 1.0060087 0.24144211 -1.7705754 -0.5633649 -1.488893
0.04024035 1.0462492 1.2072105 -2.7765841 -2.3339403 0.0 -3.661872 1.2876912
-4.104516 0.8852877 -0.04024035 -0.04024035 -3.42043 -2.052258 1.488893 -1.2072105
-1.1669701 1.5693737 -0.04024035 -0.0804807 0.04024035 -0.804807 0.76456666 0.04024035
0.0 -0.5633649 -2.8168247 0.6036053 0.6438456 0.5633649 -2.977786 -0.04024035
-2.1729789 -1.6498544 0.6036053 2.3741808 0.0 -0.6036053 0.0 -2.5753825
1.8510561 0.04024035 1.2474508 -0.84504735 1.1267298 1.3681719 -0.7243263 -3.5009105
1.3681719 -0.04024035 0.04024035 0.76456666 1.7705754 1.9315369 -0.36216316 1.5291333
0.0 0.36216316 -0.3219228 2.5351422 0.3219228 0.804807 -1.2876912 0.0
-1.2474508 -4.0642753 1.5291333 1.488893 -1.4486526 -0.04024035 -1.7303351 0.36216316
0.5633649 0.28168246 2.1327386 0.1609614 0.8852877 -2.3339403 -2.6961036 -1.8912965
-0.0804807 2.1729789 0.04024035 1.0864894 -2.0120175 -0.36216316 -0.5633649 -2.9375455

MatMul_1 i1 [256, 256] scale=0.0458797 zero_point=0
00000000: e5f8 0601 0716 1502 03f0 fbe8 05f8 e4f1
00000010: f707 e710 fcf9 e418 f206 1117 05e7 f5f8
00000020: fee5 d3f5 03e0 fbf8 0f09 ddf7 0700 f00c
00000030: f800 fb0e f501 f5f8 050b 0001 ea02 07ee
00000040: f7f7 0d04 ebf5 fdf3 ecfe f006 1203 f007
00000050: 0317 d808 06fc ef01 feeb fdfd 00f0 f5e3
00000060: 02f9 0200 dd0d fc06 fae5 00fb ef13 ff0a
00000070: e80f 01ec e307 04e4 fff2 16fa fe08 fc02
00000080: e603 ebfb f207 e6dd f90c 1af6 ec02 1bf1
00000090: 080b 0002 0102 0206 f2ef 080f 0915 e001
000000a0: eaea fef3 01f3 1413 01d4 f5ec eeed 0110
000000b0: ec01 00ff 0004 1300 11e6 f103 fcfd 0104
000000c0: f7d7 ee00 1201 1205 07fa d408 f401 0700
000000d0: fd0e 0d09 0a03 fcf5 1106 f1f5 f50d f0ef
000000e0: eff2 020b fbfa f5e3 f6f8 1a08 fff8 0ef0
000000f0: 01ff f724 e5f4 e8f2 0ae5 1103 05cd 090b
-1.2387519 -0.3670376 0.2752782 0.0458797 0.3211579 1.0093534 0.9634737 0.0917594
0.1376391 -0.7340752 -0.22939849 -1.1011128 0.22939849 -0.3670376 -1.2846316 -0.68819547
-0.4129173 0.3211579 -1.1469924 0.7340752 -0.1835188 -0.3211579 -1.2846316 1.1011128
-0.6423158 0.2752782 0.7799549 1.0552331 0.22939849 -1.1469924 -0.5046767 -0.3670376
-0.0917594 -1.2387519 -2.0645864 -0.5046767 0.1376391 -1.4681504 -0.22939849 -0.3670376
0.68819547 0.4129173 -1.6057894 -0.4129173 0.3211579 0.0 -0.7340752 0.5505564
-0.3670376 0.0 -0.22939849 0.6423158 -0.5046767 0.0458797 -0.5046767 -0.3670376
0.22939849 0.5046767 0.0 0.0458797 -1.0093534 0.0917594 0.3211579 -0.8258346
-0.4129173 -0.4129173 0.5964361 0.1835188 -0.9634737 -0.5046767 -0.1376391 -0.5964361
-0.91759396 -0.0917594 -0.7340752 0.2752782 0.8258346 0.1376391 -0.7340752 0.3211579
0.1376391 1.0552331 -1.8351879 0.3670376 0.2752782 -0.1835188 -0.7799549 0.0458797
-0.0917594 -0.9634737 -0.1376391 -0.1376391 0.0 -0.7340752 -0.5046767 -1.3305113
0.0917594 -0.3211579 0.0917594 0.0 -1.6057894 0.5964361 -0.1835188 0.2752782
-0.2752782 -1.2387519 0.0 -0.22939849 -0.7799549 0.8717143 -0.0458797 0.45879698
-1.1011128 0.68819547 0.0458797 -0.91759396 -1.3305113 0.3211579 0.1835188 -1.2846316
-0.0458797 -0.6423158 1.0093534 -0.2752782 -0.0917594 0.3670376 -0.1835188 0.0917594
-1.1928722 0.1376391 -0.9634737 -0.22939849 -0.6423158 0.3211579 -1.1928722 -1.6057894
-0.3211579 0.5505564 1.1928722 -0.45879698 -0.91759396 0.0917594 1.2387519 -0.68819547
0.3670376 0.5046767 0.0 0.0917594 0.0458797 0.0917594 0.0917594 0.2752782
-0.6423158 -0.7799549 0.3670376 0.68819547 0.4129173 0.9634737 -1.4681504 0.0458797
-1.0093534 -1.0093534 -0.0917594 -0.5964361 0.0458797 -0.5964361 0.91759396 0.8717143
0.0458797 -2.0187068 -0.5046767 -0.91759396 -0.8258346 -0.8717143 0.0458797 0.7340752
-0.91759396 0.0458797 0.0 -0.0458797 0.0 0.1835188 0.8717143 0.0
0.7799549 -1.1928722 -0.68819547 0.1376391 -0.1835188 -0.1376391 0.0458797 0.1835188
-0.4129173 -1.8810676 -0.8258346 0.0 0.8258346 0.0458797 0.8258346 0.22939849
0.3211579 -0.2752782 -2.0187068 0.3670376 -0.5505564 0.0458797 0.3211579 0.0
-0.1376391 0.6423158 0.5964361 0.4129173 0.45879698 0.1376391 -0.1835188 -0.5046767
0.7799549 0.2752782 -0.68819547 -0.5046767 -0.5046767 0.5964361 -0.7340752 -0.7799549
-0.7799549 -0.6423158 0.0917594 0.5046767 -0.22939849 -0.2752782 -0.5046767 -1.3305113
-0.45879698 -0.3670376 1.1928722 0.3670376 -0.0458797 -0.3670376 0.6423158 -0.7340752
0.0458797 -0.0458797 -0.4129173 1.6516691 -1.2387519 -0.5505564 -1.1011128 -0.6423158
0.45879698 -1.2387519 0.7799549 0.1376391 0.22939849 -2.3398647 0.4129173 0.5046767

MatMul i1 [256, 25] scale=0.049419977 zero_point=0
00000000: 052f 0114 e203 04f8 fe22 0505 fd14 07ff
00000010: 2705 0700 ff02 0102 fbf9 e4f3 0aa5 ff12
00000020: 151a 26ff 0100 0905 ff03 fd08 d801 fc00
00000030: 03ef f7fe f50b f7fc 000b 020d fbd7 fe0d
00000040: f1fa f205 0011 0000 0500 1cff f325 f83d
00000050: 00f2 050c 0501 08fc 04e6 03fc f810 ed01
00000060: 0102 ffeb fc17 f7ff 1bfb 16fb e9ed 03f6
00000070: 08e0 e2fe 15fa d1df 0103 fbec effd e2ec
00000080: 0021 0319 02f0 daff 0504 21d8 01fc fff7
00000090: f204 fe03 fdfb 03fb f301 1904 1d00 fde5
000000a0: 0909 030a e8fb 0010 0cf4 e805 f4f2 03fd
000000b0: e519 ea00 fc01 0001 0f01 08fc 010f fb09
000000c0: fd09 02f4 0b04 fe00 fe06 3010 0bff e507
000000d0: 001d 0404 08ff 2005 02ff 01f7 fd03 fc01
000000e0: fc02 2702 0b1d fb03 0913 eefd 1b00 1ccd
000000f0: 0101 021a 0cfc 0106 1308 01fc 00c9 04ff
0.24709988 2.322739 0.049419977 0.9883995 -1.4825993 0.14825994 0.1976799 -0.3953598
-0.09883995 1.6802793 0.24709988 0.24709988 -0.14825994 0.9883995 0.34593984 -0.049419977
1.9273791 0.24709988 0.34593984 0.0 -0.049419977 0.09883995 0.049419977 0.09883995
-0.24709988 -0.34593984 -1.3837594 -0.6424597 0.49419975 -4.4972177 -0.049419977 0.88955957
1.0378195 1.2849194 1.8779591 -0.049419977 0.049419977 0.0 0.44477978 0.24709988
-0.049419977 0.14825994 -0.14825994 0.3953598 -1.976799 0.049419977 -0.1976799 0.0
0.14825994 -0.8401396 -0.44477978 -0.09883995 -0.54361975 0.54361975 -0.44477978 -0.1976799
0.0 0.54361975 0.09883995 0.6424597 -0.24709988 -2.0262191 -0.09883995 0.6424597
-0.7412996 -0.29651988 -0.6918797 0.24709988 0.0 0.8401396 0.0 0.0
0.24709988 0.0 1.3837594 -0.049419977 -0.6424597 1.8285391 -0.3953598 3.0146186
0.0 -0.6918797 0.24709988 0.59303975 0.24709988 0.049419977 0.3953598 -0.1976799
0.1976799 -1.2849194 0.14825994 -0.1976799 -0.3953598 0.7907196 -0.93897957 0.049419977
0.049419977 0.09883995 -0.049419977 -1.0378195 -0.1976799 1.1366595 -0.44477978 -0.049419977
1.3343394 -0.24709988 1.0872395 -0.24709988 -1.1366595 -0.93897957 0.14825994 -0.49419975
0.3953598 -1.5814393 -1.4825993 -0.09883995 1.0378195 -0.29651988 -2.322739 -1.6308593
0.049419977 0.14825994 -0.24709988 -0.9883995 -0.8401396 -0.14825994 -1.4825993 -0.9883995
0.0 1.6308593 0.14825994 1.2354994 0.09883995 -0.7907196 -1.8779591 -0.049419977
0.24709988 0.1976799 1.6308593 -1.976799 0.049419977 -0.1976799 -0.049419977 -0.44477978
-0.6918797 0.1976799 -0.09883995 0.14825994 -0.14825994 -0.24709988 0.14825994 -0.24709988
-0.6424597 0.049419977 1.2354994 0.1976799 1.4331794 0.0 -0.14825994 -1.3343394
0.44477978 0.44477978 0.14825994 0.49419975 -1.1860795 -0.24709988 0.0 0.7907196
0.59303975 -0.59303975 -1.1860795 0.24709988 -0.59303975 -0.6918797 0.14825994 -0.14825994
-1.3343394 1.2354994 -1.0872395 0.0 -0.1976799 0.049419977 0.0 0.049419977
0.7412996 0.049419977 0.3953598 -0.1976799 0.049419977 0.7412996 -0.24709988 0.44477978
-0.14825994 0.44477978 0.09883995 -0.59303975 0.54361975 0.1976799 -0.09883995 0.0
-0.09883995 0.29651988 2.372159 0.7907196 0.54361975 -0.049419977 -1.3343394 0.34593984
0.0 1.4331794 0.1976799 0.1976799 0.3953598 -0.049419977 1.5814393 0.24709988
0.09883995 -0.049419977 0.049419977 -0.44477978 -0.14825994 0.14825994 -0.1976799 0.049419977
-0.1976799 0.09883995 1.9273791 0.09883995 0.54361975 1.4331794 -0.24709988 0.14825994
0.44477978 0.93897957 -0.88955957 -0.14825994 1.3343394 0.0 1.3837594 -2.520419
0.049419977 0.049419977 0.09883995 1.2849194 0.59303975 -0.1976799 0.049419977 0.29651988
0.93897957 0.3953598 0.049419977 -0.1976799 0.0 -2.7180986 0.1976799 -0.049419977
