merge_model.onnx (onnx, 314745 bytes, 6 tensors)

actor.0.weight f4 [256, 25]
0.24548851 2.3033986 0.034326572 0.99916184 -1.5018802 0.13534725 0.22096087 -0.3963017
-0.11068525 1.6805494 0.22693118 0.24366084 -0.15985185 0.986273 0.34451872 -0.04447119
1.935065 0.2412275 0.35115623 0.018083379 -0.06582178 0.100499645 0.049041834 0.10541996
-0.24786557 -0.3234461 -1.3642025 -0.6293353 0.4767259 -4.512509 -0.05602383 0.8990468
1.0357231 1.2822198 1.8575567 -0.051230606 0.05552658 0.02337466 0.43351158 0.26499623
-0.0439821 0.1307434 -0.13908002 0.3963673 -1.986414 0.06059983 -0.205691 -0.021529894
0.13729422 -0.85002637 -0.46596175 -0.09481753 -0.5248143 0.5500959 -0.43762216 -0.18517436
0.012736942 0.54551846 0.09306785 0.6473966 -0.2378855 -2.0153558 -0.07976872 0.65613085
-0.72981703 -0.30454078 -0.69372976 0.23261411 -0.020847611 0.8557703 -0.023866659 0.00767138
0.23908935 0.009770906 1.3806571 -0.02819703 -0.65556383 1.8174165 -0.41138926 3.0040147
-0.0042066686 -0.6749332 0.2317699 0.58963114 0.23592252 0.07265834 0.3742033 -0.21641439
0.20616119 -1.3006412 0.12576869 -0.21206263 -0.3747903 0.78642386 -0.95653474 0.055792596
0.033047475 0.12165069 -0.03387 -1.0218577 -0.21193416 1.1444521 -0.42786577 -0.029063296
1.3300569 -0.23242818 1.0897859 -0.26916766 -1.1207026 -0.9515245 0.17125657 -0.50374013
0.40850857 -1.600323 -1.5015751 -0.07932772 1.0207222 -0.31106386 -2.3438005 -1.6333495
0.028161524 0.16022861 -0.2653438 -0.9862662 -0.8489169 -0.15453035 -1.4879065 -0.9657329
-0.024137197 1.6072013 0.13581353 1.2290466 0.09473582 -0.768105 -1.8549137 -0.051959652
0.25936133 0.1837661 1.6366191 -1.9869684 0.059034828 -0.17775229 -0.038642682 -0.46591586
-0.67437243 0.18376014 -0.104603134 0.13206853 -0.13634822 -0.23813516 0.15027197 -0.23357345
-0.646381 0.0387868 1.2541331 0.21195517 1.4295045 -0.023509733 -0.13974153 -1.3397593
0.4478597 0.4657565 0.16486546 0.5060339 -1.2076252 -0.26852423 0.01672944 0.8049985
0.60579306 -0.60664845 -1.178872 0.22514074 -0.60011786 -0.68448967 0.12981968 -0.16617948
-1.3443265 1.2151794 -1.0629405 0.00784226 -0.185134 0.04174798 -0.006180828 0.025872936
0.72260094 0.053328224 0.41008198 -0.22060849 0.03076481 0.7480072 -0.26768553 0.423251
-0.1481518 0.46311504 0.110667326 -0.5765065 0.5633119 0.21484587 -0.10520821 0.005041944
-0.087331645 0.2724405 2.3941872 0.80363727 0.56335706 -0.0600111 -1.3278056 0.33135185
0.0012961832 1.4242054 0.18700038 0.1872236 0.4106259 -0.03792013 1.5708739 0.25053212
0.11242155 -0.060184497 0.057405643 -0.44105896 -0.12514406 0.14823236 -0.17469919 0.05985244
-0.17950544 0.121516556 1.9474981 0.096542224 0.54953486 1.4565566 -0.26657164 0.17167574
0.46263313 0.91818625 -0.90304226 -0.15035388 1.3405739 -0.00016327095 1.3835001 -2.502035
0.032901328 0.06962016 0.096666306 1.2907121 0.59759504 -0.19240904 0.06551028 0.3109364
0.9554298 0.40356144 0.058894854 -0.19431223 0.0030438947 -2.7324312 0.21405186 -0.05989251
00000000: 5761 7b3e e26a 1340 059a 0c3d 12c9 7f3f
00000010: 9c3d c0bf 7898 0a3e 9143 623e 0ee8 cabe
00000020: f3ae e2bd 3e1c d73f a660 683e 3a82 793e
00000030: 34b0 23be 637c 7c3f c264 b03e 6c27 36bd
00000040: 36b0 f73f 5704 773e c0ca b33e 9823 943c
00000050: 92cd 86bd c2d2 cd3d 17e0 483d 6ce6 d73d
00000060: 79d0 7dbe ba9a a5be 309e aebf 1e1c 21bf
00000070: 6b15 f43e 7966 90c0 3e79 65bd ee27 663f
00000080: 9392 843f c71f a43f 6bc4 ed3f 2fd7 51bd
00000090: d76f 633d 377c bf3c 3bf5 dd3e 96ad 873e
000000a0: 9326 34bd 99e1 053e fe6a 0ebe a8f0 ca3e
000000b0: d042 febf 8737 783d a9a0 52be 765f b0bc
000000c0: db96 0c3e 549b 59bf 8a92 eebe b12f c2bd
000000d0: 3b5a 06bf 16d3 0c3f 0310 e0be 599e 3dbe
000000e0: 9bae 503c 19a7 0b3f 5b9a be3d c9bb 253f
000000f0: 4298 73be 97fb 00c0 c85d a3bd 31f8 273f
00000100: 4ad5 3abf c5ec 9bbe 4698 31bf 6532 6e3e
00000110: 9cc8 aabc c313 5b3f 0384 c3bc 3360 fb3b
00000120: d7d3 743e 2616 203c 5fb9 b03f 75fd e6bc
00000130: 08d3 27bf 1ba1 e83f 9da1 d2be c741 4040
00000140: 18d8 89bb 6cc8 2cbf 1755 6d3e 11f2 163f
00000150: ac95 713e e5cd 943d 9397 bf3e bc9b 5dbe
00000160: eb1b 533e 697b a6bf 82c9 003e f226 59be
00000170: 84e4 bfbe 1353 493f 76df 74bf c786 643d
00000180: ca5c 073d ff23 f93d 45bb 0abd 3ccc 82bf
00000190: 4505 59be 687d 923f 3911 dbbe 2616 eebc
000001a0: 4e3f aa3f a701 6ebe 1b7e 8b3f 58d0 89be
000001b0: 2f73 8fbf 1c97 73bf e25d 2f3e 1df5 00bf
000001c0: 0928 d13e 62d7 ccbf 9d33 c0bf 9276 a2bd
000001d0: 06a7 823f c343 9fbe d400 16c0 9911 d1bf
000001e0: ffb2 e63c f812 243e 24db 87be f17b 7cbf
000001f0: 9e52 59bf 343d 1ebe b873 bebf 453a 77bf
00000200: 5fbb c5bc c6b8 cd3f b412 0b3e 6651 9d3f
00000210: db04 c23d 87a2 44bf d06d edbf a5d3 54bd
00000220: 02cb 843e 2e2d 3c3e bc7c d13f fb54 febf
00000230: 81ce 713d b204 36be ca47 1ebd 868c eebe
00000240: aca3 2cbf 9e2b 3c3e 2b3a d6bd f93c 073e
00000250: de9e 0bbe b4d9 73be e5e0 193e e12d 6fbe
00000260: 3a79 25bf e8de 1e3d 6f87 a03f c70a 593e
00000270: 01fa b63f 7c97 c0bc 6718 0fbe 3c7d abbf
00000280: de4d e53e a377 ee3e 7ed2 283e 708b 013f
00000290: 7693 9abf 027c 89be 2e0c 893c 6214 4e3f
000002a0: 4115 1b3f 504d 1bbf 47e5 96bf 4b8b 663e
000002b0: 53a1 19bf b73a 2fbf 73ef 043e f42a 2abe
000002c0: e412 acbf 008b 9b3f 6f0e 88bf d37c 003c
000002d0: c493 3dbe eeff 2a3d 8b88 cabb 7bf3 d33c
000002e0: 60fc 383f b26e 5a3d 44f6 d13e 31e7 61be
000002f0: 7c06 fc3c 667d 3f3f 140e 89be 5bb4 d83e
00000300: 1bb5 17be 6a1d ed3e 8da5 e23d ee95 13bf
00000310: 3535 103f 8e00 5c3e 6777 d7bd e436 a53b
00000320: efda b2bd 527d 8b3e 5d3a 1940 2cbb 4d3f
00000330: 2b38 103f 33ce 75bd 89f5 a9bf f3a6 a93e
00000340: b1e4 a93a 5d4c b63f 077d 3f3e 8bb7 3f3e
00000350: 8f3d d23e 2352 1bbd 6512 c93f bf45 803e
00000360: 453d e63d 0584 76bd 2e22 6b3d 7bd2 e1be
00000370: c425 00be 39ca 173e 58e4 32be d527 753d
00000380: 46d0 37be acdd f83d 9e47 f93f eeb7 c53d
00000390: 51ae 0c3f 7270 ba3f 147c 88be c4cb 2f3e
000003a0: 40de ec3e 410e 6b3f c72d 67bf 5ef6 19be
000003b0: ed97 ab3f b633 2bb9 8816 b13f 5721 20c0
000003c0: 8bc3 063d 0495 8e3d fcf8 c53d 0e36 a53f
000003d0: fdfb 183f e006 45be 412a 863d 0e33 9f3e
000003e0: 0c97 743f 9b9f ce3e bb3b 713d c9f9 46be
000003f0: 147c 473b 27e0 2ec0 6930 5b3e d951 75bd

actor.0.bias f4 [256]
0.15779248 -0.35482565 -0.14722243 0.054619666 -0.045823105 -0.02607022 0.24277768 -0.14236058
0.01305321 -0.052177068 0.12487169 0.3352215 0.18716484 -0.10194873 0.045265503 -0.21076453
-0.022347895 0.029621381 -0.27428108 0.12045159 -0.020848082 -0.13839196 -0.1845849 -0.24937376
0.18676355 0.13732699 0.085873835 -0.2273351 -0.115126304 -0.2764751 -0.29259557 0.10676954
-0.17419647 -0.020115664 -0.44835168 0.11077972 0.38989592 -0.16077371 -0.008500142 -0.36000398
0.11268414 0.29224193 -0.09954359 -0.041140426 -0.23876785 -0.048452068 0.15872401 -0.13036896
-0.08884003 -0.008653565 -0.34308413 0.2417941 0.28989235 -0.15887164 0.19956769 -0.016493984
-0.033023708 0.038884193 0.2650128 0.11099734 -0.065531656 0.023660256 -0.07875319 -0.1564189
0.16659026 -0.015381868 0.08373589 -0.25511456 0.023457214 0.22497337 0.35486588 0.18799931
-0.06419295 -0.16172414 -0.16600846 -0.0269151 0.06461217 -0.018171476 -0.027661324 -0.049951565
-0.049338024 0.06503795 0.029934663 -0.13413823 -0.26207966 0.07563141 -0.024151595 -0.040824544
-0.10644678 0.07123291 -0.028692054 -0.19244897 -0.20600735 0.072910205 -0.13134463 0.33523554
0.12141693 -0.28398225 0.15320437 0.056587122 0.016991489 0.29313502 -0.13266113 -0.2137714
-0.3735873 0.19418009 -0.19832003 -0.27099088 -0.22065726 -0.13983399 0.111290425 0.04707854
-0.11005893 -0.2358906 0.2896746 -0.34855846 -0.2982744 0.1843304 -0.095869705 0.24910371
-0.2901468 0.13232438 0.37779394 -0.014790924 -0.28971297 -0.0003534859 -0.040080585 -0.07287435
-0.043183938 -0.25288162 0.0592546 0.026897123 0.07658086 -0.26187176 0.045899816 -0.22721504
0.09704885 -0.022360107 -0.2344212 0.3782872 0.14342566 0.11708512 -0.13954408 -0.42289802
0.08510066 -0.04529472 -0.098699346 -0.0009172511 -0.18154755 -0.02786172 0.08210934 0.34573615
0.14816943 -0.07761 0.038189884 0.29246145 -0.31073594 -0.05050014 0.13461411 -0.058699984
-0.1325648 -0.031852156 0.24561517 -0.5004943 0.020228418 -0.098013796 0.2132503 0.2734876
-0.0774073 -0.18103886 -0.102261275 0.13210103 -0.36298156 -0.17558476 0.06596079 0.27927506
0.11194481 0.30799404 -0.20962378 0.062746406 -0.14190142 0.19244927 -0.10070233 0.032986354
-0.23057994 -0.06590762 -0.03513228 -0.1360837 0.15004283 -0.38448876 -0.19475746 0.061363246
0.06667012 -0.30334708 0.2877336 -0.07099416 -0.1248889 -0.12104405 0.13700086 -0.013403433
-0.11846367 -0.025422834 -0.19684237 -0.06267777 -0.15524547 0.028908996 -0.23028699 -0.23035827
0.07597908 0.13688385 0.19316208 0.01180394 -0.15795134 0.03955759 0.03160735 0.34254217
-0.17574647 -0.013821887 0.29350698 0.2673134 -0.24416706 0.06736578 -0.47599712 0.20936453
0.05158555 0.16567591 -0.1321649 -0.21168585 -0.12012528 0.10704549 -0.0042121303 0.09706264
0.21344718 0.0095151495 -0.18787548 0.40253147 0.124242306 -0.055886902 0.07712215 -0.12088556
-0.041877415 -0.017454935 -0.307747 0.14621486 -0.07635851 -0.13812496 -0.1563328 -0.123768605
-0.08132585 0.009246035 0.021814376 0.15933615 -0.033544313 -0.16531058 -0.103997305 -0.12436388
00000000: 5a94 213e b5ab b5be 7ac1 16be dfb8 5f3d
00000010: 02b1 3bbd 3791 d5bc b69a 783e f9c6 11be
00000020: 22dd 553c 9fb7 55bd bbbc ff3d 27a2 ab3e
00000030: 24a8 3f3e 7fca d0bd 5268 393d a8d2 57be
00000040: ef12 b7bc 8aa8 f23c 926e 8cbe 53af f63d
00000050: 99c9 aabc 9fb6 0dbe d303 3dbe d65b 7fbe
00000060: f23e 3f3e 729f 0c3e 9fde af3d 88ca 68be
00000070: 57c7 ebbd 258e 8dbe 16cf 95be fda9 da3d
00000080: 8f60 32be 9bc9 a4bc 5a8e e5be 7ae0 e23d
00000090: 70a0 c73e dda1 24be 2e44 0bbc 7152 b8be
000000a0: f1c6 e63d bca0 953e 82dd cbbd dd82 28bd
000000b0: 8f7f 74be ad75 46bd 8c88 223e 717f 05be
000000c0: c3f1 b5bd afc7 0dbc b9a8 afbe df98 773e
000000d0: c56c 943e 3faf 22be 795b 4c3e 641e 87bc
000000e0: de43 07bd 0845 1f3d c2af 873e 9352 e33d
000000f0: 7635 86bd 27d3 c13c 5a49 a1bd 472c 20be
00000100: a396 2a3e 3b04 7cbc b97d ab3d 609e 82be
00000110: 5829 c03c 6b5f 663e fbb0 b53e e482 403e
00000120: 9877 83bd 039b 25be 1ffe 29be 0e7d dcbc
00000130: 6353 843d 59dc 94bc 009a e2bc 039a 4cbd
00000140: ab16 4abd 9e32 853d 8a39 f53c 885b 09be
00000150: 4e2f 86be a4e4 9a3d 91d9 c5bc a337 27bd
00000160: c500 dabd 8fe2 913d 990b ebbc 5811 45be
00000170: 97f3 52be f251 953d 357f 06be fea3 ab3e
00000180: 70a9 f83d 1f66 91be 9be1 1c3e e6c7 673d
00000190: bc31 8b3c cb15 963e 52d8 07be e4e6 5abe
000001a0: d646 bfbe 25d7 463e 6814 4bbe 51bf 8abe
000001b0: faf3 61be a430 0fbe 3cec e33d 6dd5 403d
000001c0: 9466 e1bd 4e8d 71be 3b50 943e 4176 b2be
000001d0: 6cb7 98be 1cc1 3c3e 5657 c4bd 0b15 7f3e
000001e0: 1f8e 94be 0b80 073e 356e c13e a255 72bc
000001f0: 4255 94be 1354 b9b9 8a2b 24bd 263f 95bd
00000200: a4e1 30bd b379 81be f4b4 723d 5b57 dc3c
00000210: 6dd6 9c3d 0e14 86be 7201 3c3d 0fab 68be
00000220: 8cc1 c63d 8b2c b7bc 1c0c 70be dcae c13e
00000230: 2dde 123e 53ca ef3d a5e4 0ebe 1786 d8be
00000240: 4149 ae3d f586 39bd e222 cabd ae73 70ba
00000250: 9ae7 39be 433e e4bc f128 a83d 5404 b13e
00000260: bab9 173e fef1 9ebd ff6c 1c3d 82bd 953e
00000270: c818 9fbe 3cd9 4ebd 48d8 093e 656f 70bd
00000280: 11bf 07be 6877 02bd 8b82 7b3e 6520 00bf
00000290: 11b6 a53c 75bb c8bd 495e 5a3e 9106 8c3e
000002a0: b887 9ebd 4062 39be 5c6e d1bd 7e45 073e
000002b0: b8d8 b9be 7ecc 33be 7316 873d 24fd 8e3e
000002c0: 5243 e53d 65b1 9d3e 9ea7 56be 3081 803d
000002d0: 9b4e 11be 6c11 453e 063d cebd b31c 073d
000002e0: 261d 6cbe 93fa 86bd dee6 0fbd 8759 0bbe
000002f0: d4a4 193e b6db c4be 806e 47be 0758 7b3d
00000300: 588a 883d 4f50 9bbe d251 933e 6365 91bd
00000310: c0c5 ffbd f1e5 f7bd f449 0c3e 139a 5bbc
00000320: 159d f2bd 8c43 d0bc 0c91 49be 345d 80bd
00000330: abf8 1ebe 8fd2 ec3c 5ad0 6bbe 0ae3 6bbe
00000340: eb9a 9b3d 482b 0c3e 48cc 453e 5065 413c
00000350: ffbd 21be 2407 223d b576 013d b061 af3e
00000360: e2f6 33be 3275 62bc 8c46 963e 4ddd 883e
00000370: ee06 7abe 12f7 893d e5b5 f3be a863 563e
00000380: 5f4b 533d f2a6 293e 3c56 07be 2dc4 58be
00000390: 3e04 f6bd aa3a db3d e905 8abb c7c8 c63d
000003a0: e691 5a3e 6ee5 1b3c 6e62 40be 9b18 ce3e
000003b0: c072 fe3d aae9 64bd 38f2 9d3d d992 f7bd
000003c0: a787 2bbd a7fd 8ebc 0491 9dbe 59b9 153e
000003d0: da61 9cbd a170 0dbe b515 20be 657a fdbd
000003e0: 2b8e a6bd ae7c 173c 10b4 b23c 0429 233e
000003f0: c365 09bd 2d47 29be 8afc d4bd 7db2 febd

actor.2.weight f4 [256, 256]
-1.2367343 -0.34762537 0.27768555 0.027032387 0.32813928 0.9878307 0.942913 0.07678842
0.15078916 -0.7470116 -0.23902452 -1.1023477 0.20869823 -0.37592676 -1.285571 -0.69734085
-0.41396615 0.32976627 -1.1383893 0.74258244 -0.19627988 -0.31724915 -1.2989981 1.1063548
-0.6577166 0.25852045 0.7669209 1.0417683 0.2285067 -1.1451206 -0.49784812 -0.35971442
-0.08903163 -1.2430096 -2.0673122 -0.5242551 0.1597972 -1.4559493 -0.2344967 -0.37184888
0.6654726 0.42492783 -1.59564 -0.4240787 0.34363264 0.0059385374 -0.7201739 0.541849
-0.35771126 -0.008479051 -0.21484508 0.6413395 -0.50894666 0.04117834 -0.5048715 -0.34523875
0.24451578 0.50526345 0.02175993 0.032240294 -1.0261712 0.09308949 0.29920566 -0.8362568
-0.41778073 -0.42627147 0.6023016 0.17032634 -0.9649062 -0.4915366 -0.14038539 -0.5917571
-0.9004628 -0.07884589 -0.71956444 0.25955606 0.81065404 0.155992 -0.7372771 0.32791817
0.119765855 1.0486112 -1.8316293 0.3895564 0.29267812 -0.17658056 -0.7593987 0.048056647
-0.07339018 -0.9823818 -0.13031888 -0.15926595 0.015875524 -0.73725176 -0.51349413 -1.329399
0.09843312 -0.31626156 0.09940325 -0.015017096 -1.5962838 0.6104886 -0.20241676 0.26540244
-0.25255397 -1.2478981 0.022579394 -0.21901801 -0.78192496 0.8684178 -0.03306784 0.45829612
-1.1150279 0.69114715 0.04472554 -0.91838694 -1.3325614 0.3302192 0.16391966 -1.2699509
-0.0272176 -0.6610189 0.98687 -0.26102516 -0.09610791 0.38256705 -0.16134797 0.08296505
-1.2081645 0.14715467 -0.9554487 -0.24374554 -0.64279956 0.3323305 -1.2157347 -1.5919353
-0.3117473 0.5622861 1.2120218 -0.4492572 -0.92529434 0.08351862 1.2208192 -0.70333886
0.37073216 0.52158743 0.016247718 0.09964437 0.027063511 0.077613704 0.09240354 0.2926715
-0.64793986 -0.7844443 0.36153063 0.68637246 0.4191601 0.97127175 -1.4612277 0.03590979
-1.0298992 -1.0046157 -0.092777796 -0.61166877 0.044201188 -0.6005573 0.89770496 0.8639478
0.033531733 -2.0240853 -0.51346314 -0.9085054 -0.8091661 -0.87584573 0.05528219 0.7319828
-0.9296956 0.029062023 -0.014119184 -0.042058814 -0.012918219 0.20170544 0.8532258 0.0054862984
0.7665244 -1.1905742 -0.69885993 0.124403834 -0.18026681 -0.14842068 0.058516733 0.16876952
-0.40193176 -1.8929968 -0.8383854 -0.0164228 0.82833797 0.0507874 0.83246523 0.23051104
0.3112378 -0.28457174 -2.0155468 0.3769889 -0.5580173 0.039417937 0.30817956 -0.015485921
-0.14630301 0.6375958 0.60959405 0.40420207 0.4466578 0.12983693 -0.19956078 -0.489611
0.79686713 0.2717996 -0.6922601 -0.49758568 -0.52457595 0.5884342 -0.74456865 -0.76700425
-0.7993696 -0.62171775 0.11131025 0.50764203 -0.21888232 -0.25792685 -0.4887646 -1.342268
-0.4636793 -0.37557113 1.2038509 0.37065098 -0.05428295 -0.38181266 0.6202826 -0.7481776
0.043563068 -0.05937948 -0.4274483 1.660681 -1.2230711 -0.53753644 -1.0862393 -0.65104616
0.44981265 -1.2400655 0.76550394 0.14765213 0.23477483 -2.3237681 0.42458156 0.496482
00000000: 4f4d 9ebf f4fb b1be cd2c 8e3e 0673 dd3c
00000010: df01 a83e 79e2 7c3f bf62 713f 3f43 9d3d
00000020: 7968 1a3e 273c 3fbf d8c2 74be bb19 8dbf
00000030: fdb4 553e 7979 c0be 978d a4bf ee84 32bf
00000040: 5ff3 d3be 20d7 a83e beb6 91bf e219 3e3f
00000050: 98fd 48be 7b6e a2be 9245 a6bf 099d 8d3f
00000060: 1d60 28bf cb5c 843e ee54 443f aa58 853f
00000070: a9fd 693e 5093 92bf f3e5 febe 7d2c b8be
00000080: 3756 b6bd f01a 9fbf d84e 04c0 9535 06bf
00000090: e1a1 233e 8c5c babf e71f 70be fa62 bebe
000000a0: 6a5c 2a3f 2490 d93e ee3d ccbf d820 d9be
000000b0: 9ef0 af3e 1098 c23b 515d 38bf 9eb6 0a3f
000000c0: ee25 b7be b8eb 0abc 5900 5cbe d32e 243f
000000d0: 544a 02bf 9eaa 283d 423f 01bf 22c3 b0be
000000e0: 5862 7a3e f258 013f e141 b23c 660e 043d
000000f0: 9459 83bf b4a5 be3d 7c31 993e ed14 56bf
00000100: 5be7 d5be 4140 dabe 7030 1a3f 076a 2e3e
00000110: 1804 77bf afaa fbbe 30c1 0fbe 657d 17bf
00000120: bb84 66bf f479 a1bd 6035 38bf 88e4 843e
00000130: 0687 4f3f 5ebc 1f3e 31be 3cbf e4e4 a73e
00000140: cd47 f53d e438 863f d472 eabf f073 c73e
00000150: e8d9 953e 89d1 34be f467 42bf 0cd7 443d
00000160: 974d 96bd 607d 7bbf 5072 05be 9d16 23be
00000170: 630d 823c 88bc 3cbf 5a74 03bf bf29 aabf
00000180: 4e97 c93d 09ed a1be ee93 cb3d 440a 76bc
00000190: 0753 ccbf fb48 1c3f 5746 4fbe d4e2 873e
000001a0: c14e 81be 20bb 9fbf 6cf8 b83c 4246 60be
000001b0: 3c2c 48bf a150 5e3f 2572 07bd caa5 ea3e
000001c0: 3cb9 8ebf 05ef 303f 2132 373d 681b 6bbf
000001d0: 5f91 aabf 7e12 a93e 8eda 273e c08d a2bf
000001e0: 72f7 debc 8938 29bf 83a3 7c3f 17a5 85be
000001f0: 39d4 c4bd d4df c33e 6738 25be 95e9 a93d
00000200: 22a5 9abf b7af 163e 4998 74bf 6e98 79be
00000210: 838e 24bf 3927 aa3e 329d 9bbf 89c4 cbbf
00000220: 589d 9fbe fbf1 0f3f 8823 9b3f 0a05 e6be
00000230: 17e0 6cbf cf0b ab3d ce43 9c3f 040e 34bf
00000240: 9bd0 bd3e c186 053f ef19 853c 5912 cc3d
00000250: 4cb4 dd3c eff3 9e3d 113e bd3d 0ad9 953e
00000260: 63df 25bf 57d1 48bf 8b1a b93e 1bb6 2f3f
00000270: 279c d63e 44a5 783f 8209 bbbf 2516 133d
00000280: bdd3 83bf 3f97 80bf 4902 bebd 5396 1cbf
00000290: 4e0c 353d 20be 19bf fecf 653f af2b 5d3f
000002a0: 9258 093d 9d8a 01c0 5272 03bf cf93 68bf
000002b0: 8225 4fbf 6d37 60bf 946f 623d 3a63 3b3f
000002c0: 8800 6ebf 7b13 ee3c 2654 67bc dd45 2cbd
000002d0: f0a6 53bc df8b 4e3e 026d 5a3f 68c6 b33b
000002e0: f13a 443f bc64 98bf 7ce8 32bf 70c7 fe3d
000002f0: dd97 38be 97fb 17be 3eaf 6f3d ebd1 2c3e
00000300: 00ca cdbe b84d f2bf 6da0 56bf 1c89 86bc
00000310: f50d 543f 7306 503d 711c 553f 160b 6c3e
00000320: 905a 9f3e 63b3 91be b8fe 00c0 b004 c13e
00000330: 39da 0ebf b474 213d b6c9 9d3e a9b8 7dbc
00000340: 75d0 15be 7a39 233f 5b0e 1c3f 93f3 ce3e
00000350: 55b0 e43e f9f3 043e a959 4cbe 4bae fabe
00000360: 7cff 4b3f 5129 8b3e f537 31bf 8dc3 febe
00000370: 9c4a 06bf a0a3 163f 0d9c 3ebf 645a 44bf
00000380: 7ca3 4cbf e528 1fbf a1f6 e33d d4f4 013f
00000390: b022 60be fd0e 84be 5b3f fabe 70cf abbf
000003a0: 6067 edbe dc4a c0be c917 9a3f f7c5 bd3e
000003b0: cc57 5ebd f37c c3be d7ca 1e3f 9188 3fbf
000003c0: 306f 323d e637 73bd 81da dabe 3291 d43f
000003d0: 988d 9cbf fd9b 09bf e409 8bbf f6aa 26bf
000003e0: d84d e63e 77ba 9ebf 11f8 433f 1f32 173e
000003f0: d068 703e 9eb8 14c0 c162 d93e e432 fe3e

actor.2.bias f4 [256]
0.6480489 -0.07449922 -0.038905103 0.5998531 0.12685488 0.1618649 0.38801265 0.3406015
-0.19494794 0.85144085 0.49969953 -0.09285589 0.12058143 0.119797476 0.5332241 0.27284855
-0.005361415 -0.04872263 0.5447759 -0.6470615 -0.023735436 0.37628478 -0.4840117 -0.5226137
-0.5639258 -0.5434828 -0.3702141 -0.34417066 -0.29896265 0.6223716 0.01918572 -0.036519922
-0.3489902 0.030538702 -0.16360758 -0.068411686 -0.09212838 0.64540076 0.58473414 -0.4639911
-0.0868106 0.043993518 0.49665946 0.076917894 0.07433867 0.27922663 -0.0015358416 0.06700315
-0.33115262 0.57444084 -0.3613411 -0.15521018 0.40345237 0.54359674 -0.08945908 0.23977192
-0.11826945 -0.08786835 0.26550567 0.12415088 -0.047538694 -0.19552736 0.81127787 -0.79443026
-0.11848207 0.331356 0.3641383 -0.22334236 -0.966977 0.13659371 -0.45348755 -0.1171985
0.5412721 0.36535287 0.3918268 -0.148049 0.92504305 -0.01833071 -0.0544752 -0.10640772
0.4712413 0.5980558 0.19814657 0.12822895 0.34169292 0.65978926 0.07821888 -0.5732751
-0.33419478 -0.07909537 -0.37324852 -0.2871238 0.479876 0.08023637 -0.046205048 0.29123423
0.40043595 0.7828977 0.28395128 -0.03821632 -0.38339415 0.6031944 -0.06611156 0.15336896
0.10081257 -0.30818185 0.43554813 -0.03460402 -0.079612345 0.056439135 -0.050232485 0.24761236
-0.27813223 -0.046789717 -0.124467656 -0.78776526 -0.1941316 0.57634896 -0.088049576 -0.2866893
-0.3016233 -0.04441142 -0.22079045 0.30021855 0.38112417 -0.1122171 0.697002 0.00466406
0.51221293 -0.4012969 -0.33447123 0.11754298 -0.083255336 0.29731798 0.34089664 0.063480034
0.00028733676 -0.05794348 0.07093106 0.1441206 -0.24468522 0.3089587 -0.025905104 0.68148124
0.48915067 -0.0703441 0.24410412 -0.05152188 0.5765374 -0.54132545 -0.41389045 -0.107960254
0.24285002 -0.099431664 -0.0556279 0.11851534 0.046169072 0.0038970697 0.16685635 0.2526301
-0.27690744 0.20376584 0.5400675 0.038423266 -0.16467425 -0.5908067 -0.08097359 0.47762948
-0.027014315 0.14009202 0.30609506 0.7539806 0.5162558 -0.048269775 0.5703641 -0.13934407
0.24904989 0.5166233 0.006195342 -0.048309468 0.049420148 0.81138533 0.22344695 -0.62341326
-0.042685125 -0.19635953 -0.064318664 -0.082107134 0.006389767 0.13422097 -0.1745777 -0.061555557
0.5293724 -0.076182365 0.31125447 0.08289846 0.041953184 -0.46333852 0.6014951 -0.055950306
0.47699028 1.0967325 0.0071439757 0.4157355 -0.069796614 -0.33321375 -0.103672646 -0.015621715
1.012979 -0.06306172 0.2203513 0.28009236 -1.5422276 0.18602143 0.81380445 0.31946447
-0.6073632 -0.20034361 -0.07784216 0.19245926 -0.026508883 -0.26648524 0.23379026 -0.055688288
-0.06085483 0.13681363 0.43798584 -0.27498218 -0.41742453 -0.054103024 0.09127396 -0.090386905
0.13608925 0.85630643 -0.007835911 -0.043986868 -0.24201871 -0.017420359 -0.4617898 0.18709043
-0.794611 0.45487186 0.5369017 -0.08616996 0.25745955 -0.3137638 -0.26843327 -0.07780248
-0.039675783 -0.25781205 -0.022781447 -0.0996417 0.63163704 -0.17576042 0.37847593 0.48368314
00000000: 88e6 253f 0c93 98bd f55a 1fbd f98f 193f
00000010: 3fe6 013e eabf 253e 98a9 c63e 5263 ae3e
00000020: 6fa0 47be 07f8 593f 9ed8 ff3e 3b2b bebd
00000030: 66f3 f63d 6158 f53d 6081 083f ceb2 8b3e
00000040: cfae afbb 6191 47bd 6f76 0b3f d3a5 25bf
00000050: d170 c2bc 66a8 c03e 62d0 f7be 03ca 05bf
00000060: 715d 10bf b021 0bbf b48c bdbe 2337 b0be
00000070: a211 99be bf53 1f3f 5f2b 9d3c ea95 15bd
00000080: d8ae b2be 4d2c fa3c bf88 27be 6d1b 8cbd
00000090: cead bcbd fc38 253f 23b1 153f 3e90 edbe
000000a0: c1c9 b1bd 8c32 343d 264a fe3e 2187 9d3d
000000b0: df3e 983d cbf6 8e3e 4b4e c9ba f338 893d
000000c0: d68c a9be 8e0e 133f b301 b9be 6bef 1ebe
000000d0: 4f91 ce3e 2829 0b3f 5236 b7bd c586 753e
000000e0: 4137 f2bd 52f4 b3bd 5cf0 873e d142 fe3d
000000f0: efb7 42bd 5338 48be e8af 4f3f c85f 4bbf
00000100: baa6 f2bd 7ea7 a93e 5670 ba3e dcb3 64be
00000110: ce8b 77bf 39df 0b3e 852f e8be c405 f0bd
00000120: cf90 0a3f 880f bb3e 869d c83e 289a 17be
00000130: 9fcf 6c3f 492a 96bc 6321 5fbd 4aec d9bd
00000140: 8a46 f13e 2f1a 193f efe6 4a3e 734e 033e
00000150: 60f2 ae3e f3e7 283f 3831 a03d 28c2 12bf
00000160: 941b abbe c1fc a1bd 6e1a bfbe e401 93be
00000170: 4fb2 f53e f752 a43d 8141 3dbd a71c 953e
00000180: f105 cd3e fc6b 483f 1062 913e b788 1cbd
00000190: 3d4c c4be f36a 1a3f 7f65 87bd c10c 1d3e
000001a0: d276 ce3d 03ca 9dbe 2a00 df3e f2bc 0dbd
000001b0: cc0b a3bd b92c 673d 94c0 4dbd 188e 7d3e
000001c0: 5967 8ebe 93a6 3fbd e6e8 febd fcaa 49bf
000001d0: 6fca 46be 9b8b 133f 5653 b4bd f1c8 92be
000001e0: 5f6e 9abe c0e8 35bd e416 62be 3fb6 993e
000001f0: b522 c33e 14d2 e5bd b96e 323f f9d4 983b
00000200: 6320 033f ca76 cdbe d03f abbe 60ba f03d
00000210: c681 aabd 103a 983e 018a ae3e d201 823d
00000220: b0a5 9639 2456 6dbd 4e44 913d 5a94 133e
00000230: c38e 7abe d62f 9e3e f136 d4bc 8e75 2e3f
00000240: f571 fa3e 9110 90bd 6ef6 793e 9b08 53bd
00000250: f497 133f 4e94 0abf 73e9 d3be 441a ddbd
00000260: adad 783e d4a2 cbbd 15da 63bd 2cb8 f23d
00000270: c81b 3d3d fb65 7f3b 64dc 2a3e bc58 813e
00000280: d0c6 8dbe fea7 503e dd41 0a3f b761 1d3d
00000290: 5ea0 28be 1c3f 17bf 7bd5 a5bd da8b f43e
000002a0: 204d ddbc 4874 0f3e 7eb8 9c3e df04 413f
000002b0: 5729 043f 87b6 45bd 6203 123f 36b0 0ebe
000002c0: ef06 7f3e 6d41 043f 4c02 cb3b 26e0 45bd
000002d0: c86c 4a3d f3b6 4f3f 47cf 643e 0398 1fbf
000002e0: 99d6 2ebd 7912 49be 81b9 83bd c927 a8bd
000002f0: 4061 d13b 3971 093e 7fc4 32be ae21 7cbd
00000300: f384 073f 8005 9cbd bf5c 9f3e abc6 a93d
00000310: 1ad7 2b3d b53a edbe 95fb 193f 262c 65bd
00000320: 1238 f43e bb61 8c3f 0318 ea3b 49db d43e
00000330: 87f1 8ebd fe9a aabe 5352 d4bd 39f2 7fbc
00000340: 4ca9 813f 8126 81bd c5a3 613e 4468 8f3e
00000350: b767 c5bf 677c 3e3e 7d55 503f d990 a33e
00000360: 287c 1bbf e026 4dbe b66b 9fbd 0a14 453e
00000370: 2829 d9bc c170 88be b766 6f3e 6719 64bd
00000380: ea42 79bd df18 0c3e ae3f e03e 77ca 8cbe
00000390: abb8 d5be 229b 5dbd d8ed ba3d c51c b9bd
000003a0: fb5a 0b3e e636 5b3f 3162 00bc 932b 34bd
000003b0: c1d3 77be 24b5 8ebc b66f ecbe a294 3f3e
000003c0: a06b 4bbf f7e4 e83e 6472 093f e079 b0bd
000003d0: bdd1 833e a6a5 a0be 1670 89be e856 9fbd
000003e0: 1383 22bd f1ff 83be 28a0 babc f310 ccbd
000003f0: f7b2 213f 8afa 33be 99c7 c13e 51a5 f73e

actor.4.weight f4 [5, 256]
-1.2010641 0.004859594 0.0015115411 -1.9488949 0.8563709 2.4310458 0.47373763 0.12658441
1.0769347 -1.9128078 -2.442589 1.934466 -0.8674791 -2.1769087 -3.0218265 0.10762549
2.368471 -0.46845445 0.8416995 0.9661749 -0.013364663 -2.1722064 1.0553352 -0.1774099
-0.06420487 1.3253107 -1.3364618 -0.75370336 -0.8266458 -1.3778429 0.038964443 0.019117163
-0.10505671 0.99582815 -1.2677037 0.048341196 2.6795363 -1.152729 0.6084184 -1.5440724
-0.19563809 -1.8065149 0.7048921 -0.773768 -2.522733 0.9992436 1.9022845 1.0383844
1.3967199 -2.3951457 -0.77361244 1.0656691 -1.5734123 -3.551839 -0.014712544 0.09591826
2.5405352 0.0034430758 -0.9690163 0.326935 -0.01776624 -1.0836701 -2.5845428 -0.26684427
-0.6604972 3.2232087 0.30365178 0.6429582 0.9811072 1.7768316 0.6676201 0.011938411
-3.238426 0.66733015 0.24592187 0.6070357 -3.3785107 0.017220031 0.29392648 0.96266097
0.92947763 1.3509179 1.4999666 -2.0211864 0.20373827 -0.31847706 1.5466243 0.24756058
0.5449654 0.02121664 1.2692981 -0.6460998 0.23341502 0.35754788 0.030467398 0.4654306
-1.2015227 -1.1898948 -0.79526854 0.15258178 -1.8389444 -2.2043583 -0.006482384 -3.035056
-0.122758836 3.03405 0.0035895954 1.3965636 0.0176835 1.1350198 -0.02499916 -2.2125714
-2.9075515 -0.034479808 -3.117224 0.04799106 1.1432999 1.36779 -0.044422098 -4.7805567
-3.492216 2.1622953 -2.3317869 1.701279 -2.9143918 2.5962975 -0.66315424 0.84602064
-2.4836931 -0.1413503 0.3626815 1.807814 0.41049114 0.44240597 1.5582161 -0.9039887
-0.006739354 0.003376168 -2.4013865 0.441553 -2.2506287 -0.39826456 0.043967772 0.7544722
-2.348908 0.09783655 0.68126154 2.0730631 -1.2366213 0.38760534 -1.3247027 -0.03172187
-0.8062839 -1.8149014 -2.286754 0.22547351 0.32944265 1.6786809 -1.3540146 0.6216993
0.50082296 1.7778656 -3.816026 0.987485 0.22373895 -1.7702199 -0.57289094 -1.4762858
0.03895216 1.0354388 1.188463 -2.788096 -2.3151855 -0.009652034 -3.6477525 1.279676
-4.1153607 0.8991848 -0.021907385 -0.050312124 -3.4355009 -2.0707414 1.4899666 -1.2252856
-1.1475397 1.5653385 -0.035952765 -0.08178864 0.028874487 -0.8219539 0.76456946 0.031015068
-0.014764755 -0.5466389 -2.805461 0.61106706 0.64665085 0.55333453 -2.9745684 -0.024368638
-2.164783 -1.6451259 0.59592503 2.3855557 -0.007086612 -0.60908574 -0.017196927 -2.5886617
1.850713 0.049522005 1.2388704 -0.8412612 1.130245 1.3779913 -0.7421762 -3.5006042
1.3800106 -0.024152916 0.020770032 0.7517265 1.7867407 1.9407798 -0.35296172 1.5431534
-0.0058960887 0.34931046 -0.3347523 2.5164063 0.30818525 0.8036831 -1.3013557 -0.011183946
-1.2429671 -4.044587 1.5094401 1.4908832 -1.4323729 -0.024559068 -1.7407595 0.36742094
0.56941044 0.29988107 2.1290092 0.17075622 0.8838061 -2.317903 -2.6864638 -1.898081
-0.0666305 2.181137 0.03269471 1.075794 -2.0191271 -0.37620324 -0.5785899 -2.940853
00000000: 78bc 99bf 3b3d 9f3b e71e c63a 6375 f9bf
00000010: 203b 5b3f 4196 1b40 bd8d f23e 589f 013e
00000020: ffd8 893f e3d6 f4bf 6153 1cc0 959c f73f
00000030: 1c13 5ebf 7952 0bc0 9b65 41c0 c16a dc3d
00000040: 0795 1740 43d9 efbe 9e79 573f 3d57 773f
00000050: 76f7 5abc 6e05 0bc0 3915 873f f1aa 35be
00000060: d87d 83bd c8a3 a93f 2e11 abbf b4f2 40bf
00000070: 0f9f 53bf 285d b0bf 2e99 1f3d 999b 9c3c
00000080: f927 d7bd 98ee 7e3f 1d44 a2bf 6b01 463d
00000090: 867d 2b40 a08c 93bf 4fc1 1b3f 2aa4 c5bf
000000a0: 5a55 48be e13b e7bf cf73 343f a915 46bf
000000b0: 7574 21c0 6ece 7f3f 0f7e f33f c8e9 843f
000000c0: b8c7 b23f 114a 19c0 770b 46bf d867 883f
000000d0: 9365 c9bf 5551 63c0 e20c 71bc cb70 c43d
000000e0: 2198 2240 3aa5 613b 7411 78bf 0664 a73e
000000f0: 818a 91bc b4b5 8abf 2669 25c0 d09f 88be
00000100: 5816 29bf 0d49 4e40 3f78 9b3e e998 243f
00000110: d729 7b3f 386f e33f 27e9 2a3f 5399 433c
00000120: 5f42 4fc0 26d6 2a3f f1d2 7b3e b166 1b3f
00000130: 8539 58c0 0611 8d3c 887d 963e f370 763f
00000140: 3ff2 6d3f e1ea ac3f e8fe bf3f 1e5b 01c0
00000150: c4a0 503e 6d0f a3be c9f7 c53f 8580 7d3e
00000160: da82 0b3f 85ce ad3c 5c78 a23f cc66 25bf
00000170: 5904 6f3e 8410 b73e c496 f93c eb4c ee3e
00000180: 7fcb 99bf 794e 98bf b896 4bbf 663e 1c3e
00000190: 8862 ebbf 3514 0dc0 2e6a d4bb 5c3e 42c0
000001a0: fc68 fbbd e02d 4240 6b3f 6b3b 99c2 b23f
000001b0: fddc 903c 5448 913f 0acb ccbc c59a 0dc0
000001c0: 5315 3ac0 b33a 0dbd 9980 47c0 4692 443d
000001d0: a757 923f be13 af3f f2f3 35bd 52fa 98c0
000001e0: 7880 5fc0 0c63 0a40 ff3b 15c0 83c3 d93f
000001f0: 6585 3ac0 bd29 2640 7ac4 29bf cf94 583f
00000200: d4f4 1ec0 22be 10be 64b1 b93e 7366 e73f
00000210: e52b d23e 0983 e23e a073 c73f ce6b 67bf
00000220: cdd5 dcbb b342 5d3b 51b0 19c0 3c13 e23e
00000230: 4d0a 10c0 55e9 cbbe 8d17 343d 1725 413f
00000240: 8254 16c0 875e c83d 2867 2e3f 11ad 0440
00000250: 9b49 9ebf 3574 c63e dc8f a9bf cbee 01bd
00000260: 9f68 4ebf b04e e8bf 2d5a 12c0 87e2 663e
00000270: b5ac a83e 04df d63f 5a50 adbf af27 1f3f
00000280: ef35 003f 1a91 e33f c539 74c0 d1cb 7c3f
00000290: d31b 653e 9196 e2bf fba8 12bf eff6 bcbf
000002a0: 4d8c 1f3d 4289 843f 8e1f 983f 2a70 32c0
000002b0: 002c 14c0 9123 1ebc c774 69c0 6ccc a33f
000002c0: 09b1 83c0 fa30 663f 1e77 b3bc 1614 4ebd
000002d0: 3fdf 5bc0 0787 04c0 3ab7 be3f 29d6 9cbf
000002e0: 95e2 92bf 035d c83f 3543 13bd cd80 a7bd
000002f0: 308a ec3c 926b 52bf d3ba 433f 5013 fe3c
00000300: dfe7 71bc 87f0 0bbf ac8c 33c0 e46e 1c3f
00000310: e98a 253f 55a7 0d3f 545f 3ec0 bda0 c7bc
00000320: ce8b 0ac0 7c93 d2bf 8b8e 183f f2ac 1840
00000330: cf36 e8bb 0bed 1bbf 92e0 8cbc a2ac 25c0
00000340: 2ae4 ec3f 96d7 4a3d 4e93 9e3f e55c 57bf
00000350: deab 903f 0562 b03f 42ff 3dbf e609 60c0
00000360: 30a4 b03f 56dc c5bc ea25 aa3c 2671 403f
00000370: ebb3 e43f 796b f83f 66b7 b4be 0d86 c53f
00000380: fa33 c1bb d2d8 b23e a764 abbe cd0c 2140
00000390: 75ca 9d3e 2dbe 4d3f d392 a6bf df3c 37bc
000003a0: 8c19 9fbf 426d 81c0 5535 c13f 43d5 be3f
000003b0: ff57 b7bf 1930 c9bc 35d1 debf 991e bc3e
000003c0: e2c4 113f 038a 993e b041 0840 b8da 2e3e
000003d0: 1e41 623f 8658 14c0 06ef 2bc0 51f4 f2bf
000003e0: 9275 88bd c097 0b40 e3ea 053d 9eb3 893f
000003f0: 6139 01c0 b69d c0be 781e 14bf f036 3cc0

actor.4.bias f4 [5]
-0.31124103 0.11053973 -0.04616599 -0.2623584 0.5207859
00000000: fc5a 9fbe a762 e23d 8d18 3dbd d753 86be
00000010: 3a52 053f
