MountainCarContinuous-v0.onnx (onnx, 38387 bytes, 5 tensors)

actor.0.0.weight f4 [64, 2]
000000 b2 8d ab 3c e6 1a 73 3e 17 27 b9 be d5 4d 47 c0
       0.020941589 0.2374073 -0.36162636 -3.1141255
000010 14 2c 1d 3e 6b 01 84 40 e5 95 e9 3e b0 ae 18 3f
       0.15348846 4.125173 0.45622173 0.5964155
000020 6d 43 17 bf 83 74 82 c0 4d 32 14 bd af 87 92 40
       -0.5908726 -4.0767226 -0.036180783 4.579063
000030 2a 7f 3a 3e f5 bc b0 3e 41 88 30 bf 28 9b 6e c0
       0.18212572 0.34519163 -0.68957907 -3.72822
000040 eb 58 9a 3e 92 96 ce be e6 b5 79 3e 94 21 8e 40
       0.30145964 -0.4034925 0.24385795 4.441599
000050 64 3a 6a 3e 81 b9 80 40 e5 b5 58 3e e0 c3 83 be
       0.22873837 4.0226445 0.21163137 -0.25735378
000060 ce 67 b2 3e 7a 9b 81 bf 8f 98 aa be 91 9e f9 3d
       0.34844822 -1.0125573 -0.33319518 0.12188447
000070 3d 3e 0f 3f 4d d5 94 3d d3 51 1e be d0 e4 66 40
       0.55954343 0.072672464 -0.15460901 3.6077156
000080 fc ed c7 3e eb a0 9e 40 dd e6 55 bf 70 5b 0f 40
       0.39048755 4.9571433 -0.83555394 2.239956
000090 5d 53 e9 bd 60 36 11 c0 af c7 4d bf e6 d3 2d 40
       -0.113928534 -2.2689438 -0.8038282 2.7160583
0000a0 d2 ea 46 3d 8f fc 94 bf 70 fc 3a bf 9d 17 a5 c0
       0.048563786 -1.1639575 -0.7304144 -5.1591325
0000b0 b5 2f c4 be 25 9f 11 c0 07 37 a1 3e ee a7 33 bf
       -0.38317648 -2.2753384 0.31487295 -0.70178115
0000c0 b3 17 6a be c0 9b 0b c0 bd 1c 19 be b6 0f 18 c0
       -0.22860603 -2.1813812 -0.14952369 -2.375959
0000d0 38 4f 5b 3d a8 b1 e6 3e 32 18 10 bf 81 33 53 bc
       0.053542346 0.45057416 -0.5628692 -0.012890697
0000e0 c0 2e 8e be 08 6b 0f 3f a8 64 dc bd 21 07 60 40
       -0.27770042 0.5602269 -0.10761386 3.500435
0000f0 39 b4 d1 3e 4d a8 8f 40 f7 93 26 bd db 4e 25 c0
       0.4095781 4.4892945 -0.040668454 -2.582938
000100 e2 65 56 bd f3 ff 88 40 29 1c 56 be e0 c6 5b c0
       -0.052343257 4.281244 -0.2090918 -3.4340134
000110 cb 6d 08 be 06 4a 0b bf d6 fa da be f6 ef 4f c0
       -0.13323133 -0.54409826 -0.42769498 -3.249021
000120 a4 50 ba bd cd 15 3a 40 f9 5d a9 3e 97 52 f6 3f
       -0.09097412 2.9075806 0.33079508 1.9243954
000130 00 d5 fd bd e8 27 a4 40 d3 b6 9d bd e3 f3 6f 40
       -0.12394142 5.1298714 -0.077008866 3.7492607
000140 12 b6 76 3e c5 7e 1d 3f 52 d6 05 bf f3 8c ee 3f
       0.24092892 0.6152156 -0.5228015 1.8636764
000150 e8 8a 11 bf 7d 88 c8 3f 07 d3 24 3e 99 12 c7 3d
       -0.5685258 1.5666653 0.16096126 0.09720344
000160 f4 1e bd be 01 3d 4c 40 44 0a 4c 3e 82 51 04 3e
       -0.36937678 3.1912234 0.19925791 0.12921718
000170 b2 9e f1 3d 5b 4c 26 3f 2b fd 93 3e dd ff 12 3f
       0.11797847 0.6496026 0.2890409 0.57421666
000180 f7 99 43 be 6a 72 34 3f f0 3d 3e be 2b 0e 66 40
       -0.19101702 0.7048708 -0.18578315 3.5946147
000190 3e 19 5f bf d1 33 8d c0 76 9d 96 bf 02 3a d7 3f
       -0.8714789 -4.4125752 -1.1766803 1.6814578
0001a0 a2 5b b4 3e 6f 84 7a 40 fa 99 ad be 8a 19 4f c0
       0.3522616 3.914333 -0.33906537 -3.2359338
0001b0 f9 f4 d3 be fe 7b 2e c0 01 b5 20 bf 07 6c 81 c0
       -0.41397837 -2.726318 -0.6277619 -4.044437
0001c0 63 9f cd 3c b1 f1 7d 40 3c ff 2e 3e 57 3f c4 3e
       0.025100416 3.9678767 0.17089552 0.38329574
0001d0 fb 23 12 3e ea c7 df be cf 14 b1 be 40 c6 43 c0
       0.14271538 -0.4370721 -0.34586188 -3.0589752
0001e0 71 bf 16 bf e5 e6 7b c0 2c 0f 46 bf 0a 3a 7a c0
       -0.58885866 -3.9359677 -0.773669 -3.9097924
0001f0 7d 6b b3 3d b9 20 15 3f 66 ee c3 3d ca cd 31 bf
       0.08760736 0.58253056 0.09566955 -0.69454634

actor.0.0.bias f4 [64]
000000 5f e6 c0 be 0e d2 c5 3e a5 07 17 3f 83 4c 80 be
       -0.3767576 0.38636822 0.5899604 -0.25058374
000010 89 7a b1 3e 7a b7 1c 3f 90 0a 0f bf 33 f9 ad 3e
       0.346638 0.61217463 -0.5587549 0.33979186
000020 a5 09 ca be 49 c8 35 3e f4 3d 33 3e df 55 1c bf
       -0.39460483 0.17752184 0.17504102 -0.6106853
000030 f3 99 7b 3f 22 c1 09 bf 1e 33 21 bf 0c 74 6b 3e
       0.9828178 -0.5381032 -0.62968624 0.22993487
000040 51 2e d0 3e c3 10 0b 3f 4f ec f1 3e e5 25 44 3f
       0.40660337 0.5432245 0.47250602 0.7662032
000050 2c 47 4b 3f d4 3b 0f be 67 2c 3c 3e d0 3c 02 bf
       0.79405475 -0.13987666 0.18376313 -0.5087404
000060 dc e1 20 3e 8c 13 0e 3f 04 a6 12 bf 25 52 2f bf
       0.15711159 0.55498576 -0.5728457 -0.6848472
000070 b5 b6 2a bf e0 f6 62 3e f7 58 32 3f 0d 75 17 3f
       -0.6668504 0.22164488 0.69667 0.5916298
000080 16 74 36 3f 55 f8 11 3f 47 69 ab be 20 b7 84 3e
       0.71270883 0.5701955 -0.33478758 0.25920963
000090 db ca 95 3e d8 c6 70 3f c5 ff 50 3f ab 1c d6 3e
       0.2925633 0.9405341 0.81640273 0.41818747
0000a0 36 79 ee be cc 5d ef 3c e0 d5 8f 3e 45 05 dd be
       -0.46576852 0.02921953 0.2809286 -0.43168083
0000b0 ad 94 02 3f 59 e1 8d be 2b be 52 be a0 d0 d1 be
       0.5100811 -0.2771099 -0.20580356 -0.4097948
0000c0 ad 2b ce be e3 fb b5 3e 00 4c 74 be 96 af 22 be
       -0.40267697 0.35543737 -0.23857117 -0.15887293
0000d0 9a 86 8b 3e 77 4d f6 3e 96 34 54 3f b8 37 b1 3e
       0.2725113 0.48105976 0.8289274 0.34612823
0000e0 29 3b b9 3e 89 81 fa be 5d 3a 90 be 97 6d 65 3e
       0.36177948 -0.48926952 -0.28169528 0.22405086
0000f0 2c 31 85 bb 27 31 f7 3d c1 8a cb be c3 3a 6f be
       -0.0040646996 0.12069922 -0.39754298 -0.2336226

actor.0.2.weight f4 [64, 64]
000000 30 a4 cc 3d 79 e9 46 3d 04 68 37 3e 6f e3 26 bd
       0.09992254 0.0485625 0.17910773 -0.04074424
000010 75 3d bf 3d 04 ee 66 3e 8c 61 6c bd 1a eb bf 3d
       0.09337894 0.22551733 -0.057710215 0.09371014
000020 ec d4 26 3d 3c 1f ea 3e b7 80 a0 3f a0 a5 70 3d
       0.040730402 0.45726955 1.2539281 0.058751702
000030 06 9e a0 3d 92 b3 89 3d 00 bc 7a 3a 15 72 54 3e
       0.078426406 0.067237034 0.00095647573 0.20746644
000040 f6 7d 71 3e 87 76 3b 3e 4b ae 0a 3a 38 74 8b 3c
       0.23583207 0.18306933 0.0005290254 0.01702319
000050 48 a4 e9 3c 9a 80 c8 3c a5 bf 62 3c 90 fc ac 3c
       0.028520718 0.024475385 0.013839637 0.021116525
000060 17 52 b3 bd a5 cd 04 3e e8 92 70 3d 0a 7c 8a bd
       -0.08755892 0.12969072 0.05873385 -0.0676194
000070 c2 68 97 3d 94 1a 17 3d a1 ce be 3c 4a 1e 9c bc
       0.07393028 0.03689058 0.023291888 -0.019057412
000080 88 39 2f 3e 9c 49 ef 3c 38 ee 06 bd a5 0d 24 3e
       0.1711179 0.029209904 -0.032942027 0.1602083
000090 85 4a 04 3e c4 35 5a 3e ff 70 5f 3e fb b0 81 3e
       0.12919052 0.21309572 0.21820448 0.25330338
0000a0 1c bd 5e bd 34 15 51 3e 75 0f 46 3d 1e 30 a5 3d
       -0.054379568 0.20418245 0.048354585 0.08065818
0000b0 fc 0c 33 3e 88 2e 3c bd 4a 7a fa 3d b4 f3 65 bd
       0.17485422 -0.045942813 0.12230356 -0.056140617
0000c0 0c c7 76 bd 5f 52 84 3d f2 a1 81 3d 80 01 d3 3e
       -0.06024842 0.064610235 0.06329717 0.41212082
0000d0 0e d7 61 3f 3f ec b3 3d a3 c4 a5 bc 87 b2 39 3e
       0.8821877 0.08785295 -0.020235365 0.18134509
0000e0 67 8f 85 3e 94 f2 d8 bd e2 97 9d 3d f2 ad 9e bc
       0.2608597 -0.10593143 0.07694985 -0.019370053
0000f0 3b 8d 29 be af f4 00 3d cc d8 46 bd c4 3b 4e bd
       -0.16557781 0.03148335 -0.048546597 -0.050349966
000100 40 98 66 bc 04 22 ab 3e dd 19 64 3e dd df 7f 3d
       -0.014074385 0.3342439 0.22275491 0.062469352
000110 25 61 4b 3d ad 91 33 3e e2 9c a6 bd 14 e4 6b 3d
       0.04965319 0.1753604 -0.08135392 0.05759056
000120 ec 21 8e 3d e4 0e 68 be 70 e7 2e bf 4c 73 65 bd
       0.06940064 -0.2266193 -0.68321896 -0.05601816
000130 6b 66 7c 3e c0 3f 52 3d 14 35 34 3d c2 ed a8 bd
       0.24648444 0.051330328 0.04399593 -0.08248474
000140 46 2d 47 3e 0e 7f 1b 3e b5 7e 9b 3e 43 89 8d 3c
       0.19450864 0.15185186 0.30370107 0.017277366
000150 d6 64 80 3e 56 a4 12 3d 7f f5 2c 3e 60 d9 a9 bd
       0.25076932 0.035801254 0.16890524 -0.08293414
000160 f1 bd 16 3e bc 24 17 3e 32 9c bd bd 42 dd ba 3d
       0.14720894 0.14760107 -0.092583075 0.09124233
000170 6c 22 3c 3d 1c 00 45 3e 3c 94 88 3e 80 35 b0 3d
       0.045931265 0.19238323 0.26675594 0.08603954
000180 57 c7 1c 3e de dd b0 3e 0c c4 ff bd d6 76 9d 3e
       0.15310417 0.3454427 -0.12488565 0.30754727
000190 0c 11 90 bd 0b 9a 11 3e 26 92 0e 3e 79 7e 13 3e
       -0.070345014 0.14218919 0.13922939 0.14403714
0001a0 60 80 b6 bb de ba dd bd ea 7d 52 3d 54 e8 b2 bd
       -0.0055695027 -0.10826658 0.051389612 -0.08735719
0001b0 d5 a4 05 3e 24 17 65 bd 98 1c a3 3c 04 ef e1 3d
       0.1305116 -0.05593027 0.019911095 0.11031917
0001c0 68 2a d5 3c 7f be 07 3e 35 35 41 bc 7c 90 d9 be
       0.026021197 0.13256262 -0.011792471 -0.42493045
0001d0 67 38 0f bf 0e 14 96 3e b2 38 91 3e 3e 15 69 3d
       -0.5594544 0.29312176 0.28363568 0.056905024
0001e0 ab 9c 31 3d ca 18 84 3d 5c 30 03 bd 8e c8 15 3e
       0.0433623 0.06450041 -0.03202854 0.14627287
0001f0 ea 86 3b 3e 73 85 f9 3d d8 f8 fc 3d 04 70 5b 3d
       0.18313184 0.121836565 0.12352151 0.053573623
000200 bc c6 9e bd 5e 1b 39 3d 06 eb cd 3d 65 82 f3 3d
       -0.07752749 0.045192115 0.10054593 0.11890105
000210 62 c6 cc bc 74 20 22 3e dc 74 d4 3d e8 1d 98 3e
       -0.02499694 0.15832692 0.10373852 0.29710317
000220 ac cd 31 bd 00 97 cc 3e d1 8d 61 3f 02 6d ca 3d
       -0.043409035 0.39958954 0.8810702 0.09884073
000230 07 b2 94 3d 80 fc 8a bd 88 4f 2a 3d 65 70 6c 3e
       0.072605185 -0.06786442 0.041579753 0.2308975
000240 20 d3 f7 3d 92 4f 1c 3c c9 d8 b3 bc b5 13 73 3e
       0.12100816 0.009540455 -0.021953957 0.23737986
000250 10 b8 c3 3d da 7e 53 3e 08 14 d8 bc 84 f5 d6 bd
       0.095565915 0.20653859 -0.02637674 -0.10496047
000260 a4 24 2c 3d e3 b7 1f 3c b0 99 34 3c 04 6b 4f bd
       0.04202713 0.009748432 0.01102297 -0.050639167
000270 4a ea 86 bd 8c 79 92 3d 58 85 28 3e 23 25 50 3c
       -0.06587656 0.071520895 0.16457117 0.012704167
000280 4f 82 11 3e 1b dd 2b bd e8 2d ac bc 8d 17 b1 3d
       0.14209865 -0.04195891 -0.021017984 0.0864707
000290 62 25 38 3e 0a e4 4d 3e 31 8c 00 3e 41 a6 e6 3c
       0.1798301 0.20106521 0.12553479 0.028155448
0002a0 f0 c2 01 bc d2 40 9e 3e cf 69 79 3e b8 89 e6 3d
       -0.007920012 0.3090883 0.24356769 0.112567365
0002b0 82 8a 17 3e 42 f7 f1 bd b2 90 e9 3d 70 27 f2 3c
       0.1479893 -0.11814739 0.114045516 0.02955982
0002c0 bc c4 22 bd 9e 3d 27 3e 9d 22 21 bd 53 7d e5 3e
       -0.0397384 0.16332099 -0.03933965 0.44822177
0002d0 57 66 1d 3f 7c 8d 26 bb 87 7d d3 3d 7c 67 cf 3d
       0.61484283 -0.002541392 0.10326677 0.1012716
0002e0 f2 ff 9e 3d 16 d0 a3 3d 7a f2 ed bd b2 8f db 3d
       0.077636614 0.079986736 -0.11618514 0.10720767
0002f0 c4 56 0c bc f7 5e 49 3e 64 20 1a 3d 00 8d e2 bc
       -0.008565608 0.19665132 0.037628546 -0.027655125
000300 8e 3a e3 3d 10 5f 42 bd 42 89 d3 3d fa bf b3 bd
       0.11095153 -0.04745394 0.10328914 -0.08776851
000310 26 d5 bd 3d 3a 23 ac 3d 4e 16 9d 3d a0 5c c8 3d
       0.092691705 0.084051564 0.0767027 0.09783292
000320 76 b9 87 3d 44 76 0f 3d 20 e3 fe 3b e0 fc b3 bb
       0.06627171 0.035024896 0.0077785403 -0.0054927915
000330 80 b3 86 bc 54 ba f3 bd a0 b0 df bd 30 96 61 bc
       -0.016443014 -0.11900774 -0.109223604 -0.013768718
000340 d0 f2 a3 bd f8 da fa bd 4a f4 e3 3d 28 27 94 bd
       -0.08005297 -0.12248796 0.11130579 -0.07234031
000350 42 95 ab bd f2 23 90 bd fc e3 eb bd 48 d7 20 3d
       -0.08378078 -0.07038106 -0.11518094 0.03926781
000360 74 14 f0 bd 44 b9 68 bd 88 b9 ac bd 54 e4 bb 3d
       -0.11722651 -0.056817308 -0.08433825 0.091744095
000370 c4 b5 ea bd 00 36 8e 39 80 c7 b7 bc a0 7a 4c bd
       -0.1146045 0.00027124584 -0.022433996 -0.04992163
000380 c6 d8 8b bd a0 68 eb bd 78 d1 52 3d dc 5b 68 3d
       -0.068284556 -0.11494565 0.051469296 0.05672823
000390 4c 2e 09 bd 80 00 b9 3b 64 66 cf bd ac 86 fc bd
       -0.033491418 0.0056458116 -0.10126951 -0.12330374
0003a0 00 91 a2 3b e0 3a 88 3c 82 33 a0 3d f4 9e 59 bd
       0.004961133 0.016629636 0.07822324 -0.053130105
0003b0 78 45 a3 3c 20 9e cf 3b b6 b7 d0 bd 82 0d c7 bd
       0.019930586 0.0063359886 -0.1019129 -0.09719373
0003c0 04 70 4b bd e6 e8 86 3d fe 50 f3 bd 72 8a 90 bd
       -0.049667373 0.065873906 -0.118806824 -0.07057656
0003d0 c0 30 0b bb 10 de 05 3d f8 46 5a bd 2e 21 b3 bd
       -0.0021238774 0.03268248 -0.053290337 -0.08746563
0003e0 90 ba 3a 3c e0 b5 a8 bb 00 c2 c3 3a 3e 75 db bd
       0.011397019 -0.0051486343 0.0014935136 -0.107157215
0003f0 14 95 ed bd 1a 85 bb 3d fc 27 85 3d a4 cd d1 3d
       -0.116007 0.091562465 0.06501767 0.10244301

actor.0.2.bias f4 [64]
000000 33 96 82 3d 38 ab 5e 3e b4 14 de 3d 10 0c 02 bc
       0.063763045 0.21745002 0.108437926 -0.007937446
000010 c3 59 8d 3e 6c aa c9 bd d0 3d cd 3b 00 9d 08 ba
       0.27607545 -0.098469585 0.006263472 -0.0005211383
000020 b8 36 35 3e 46 a0 b3 3d c5 28 e7 bd cc 46 8f 3d
       0.17696655 0.08770804 -0.11287073 0.06995925
000030 ba cd 25 bd a5 0f 42 3d 2b 50 48 3e 3b cc 37 3d
       -0.0404794 0.0473782 0.19561832 0.044872504
000040 c2 62 f0 bd 40 ad 8e bd f8 93 1d bd 4e 36 c6 3c
       -0.117375866 -0.069666386 -0.038471192 0.024195816
000050 2c 79 68 3d 92 09 50 3e fb c5 ca bd e0 02 81 bd
       0.056756184 0.20316151 -0.09901043 -0.062993765
000060 95 28 f4 bd 0e a8 56 bd 14 93 cc 3d a4 65 39 bd
       -0.11921803 -0.052406363 0.099889904 -0.045262948
000070 e2 a8 15 3c 87 8f 22 bb 95 d0 03 3d 72 d6 6a 3d
       0.009134503 -0.0024804787 0.03218134 0.057333417
000080 74 ac bf 3d 92 5a d0 3d ac 29 b7 3d b0 ae 40 bc
       0.09359065 0.10173525 0.08943495 -0.011760399
000090 b7 b2 aa 3d 31 72 e2 3d b4 3d 96 bd 1c af ce 3d
       0.083348684 0.110569365 -0.07335988 0.10091993
0000a0 c4 f3 91 3e 93 f4 71 3e 5a d4 e5 3d 83 a0 95 3e
       0.2850629 0.23628454 0.112221435 0.29224023
0000b0 9d 76 cf bd 35 70 73 bb a8 f5 a3 bd 3b 6f 0c be
       -0.101300456 -0.0037145738 -0.080058396 -0.13714306
0000c0 36 2d b0 bd 61 ff 45 3e dd 06 b4 bd 20 57 69 bc
       -0.08602373 0.193357 -0.087903716 -0.014241964
0000d0 8c b4 ff 3c ed b8 f6 bd 51 6f ab 3d 5b fd 67 3d
       0.031214021 -0.120469905 0.08370841 0.056638103
0000e0 fc bb b7 bd 8e 57 83 bc c6 f6 bd bd 80 ea e5 bd
       -0.08971402 -0.01603296 -0.09275584 -0.11226368
0000f0 66 72 85 be 37 d2 ab 3d 28 02 48 3e bc f5 a5 bc
       -0.26063842 0.08389705 0.19532073 -0.020258777

actor.1.0.weight f4 [1, 64]
000000 73 65 bd 3d c2 fc 06 be 3f e9 f9 3d 34 87 85 bd
       0.092478655 -0.13182357 0.12202691 -0.065199286
000010 87 d6 2e bf d4 6b 93 3d 74 87 69 3e e0 2c e0 3c
       -0.6829609 0.07198301 0.22805578 0.027365148
000020 6f 4a cc bd 2c 3c 1e 3e a9 c9 ae bd 24 0c bd bd
       -0.099751346 0.15452641 -0.08534557 -0.09230831
000030 80 d3 f1 bc a2 26 2b 3d 86 ac ac bd 9d 3b 90 3d
       -0.029519796 0.04178489 -0.08431344 0.0704262
000040 3a fc 33 3f f6 0e 8d bc 78 2e 84 3c 2d cd e6 3e
       0.7030674 -0.017219048 0.01613544 0.45078412
000050 70 c4 2c 3c e5 27 85 bc 55 65 97 bd 06 83 c4 bd
       0.010544881 -0.016254375 -0.073923744 -0.09595303
000060 df c2 ae 3d 71 12 07 3f 04 24 9e bd 44 35 bb 3d
       0.085332625 0.52762514 -0.07721713 0.09141019
000070 2d 5d cc 3f 47 88 ed 3d 59 e8 81 bd a0 97 95 bd
       1.5965935 0.115982585 -0.06343145 -0.07304311
000080 7c 37 da 3d 03 b6 7e bf f6 9a 88 3d ae ad b8 3d
       0.10655114 -0.9949648 0.066701815 0.09017502
000090 cd ef 92 3e 3e ce 9f 3c 80 98 e0 3a 17 30 db 3c
       0.28698578 0.019507524 0.0017135292 0.02675633
0000a0 75 05 93 bd 8f e3 00 be 5e c4 34 bd 55 b0 c1 bb
       -0.07178775 -0.12586807 -0.044132583 -0.005910913
0000b0 1b b7 24 be c4 8c 1d 3e b3 06 db bc 02 bd 37 3f
       -0.16085474 0.15385729 -0.026736593 0.7177278
0000c0 80 e3 b4 3a ca 98 a9 bd 58 a8 ad 3e b8 ae e2 3d
       0.001380071 -0.08281095 0.339175 0.11068481
0000d0 4a dd 44 3e dc 8f d8 bd e7 f5 c0 3d ae 6d 0b 40
       0.1922504 -0.10574314 0.09421902 2.1785693
0000e0 70 34 0f bd d7 02 24 bd 76 af 2c bd ec c1 32 bd
       -0.034962118 -0.04004177 -0.04215952 -0.04364197
0000f0 65 39 3a 3f 51 ea 39 3c 8c b3 4f 3d 70 ab 3a 3d
       0.7274383 0.011347369 0.05070834 0.04557365
