MountainCarContinuous-v0_quant.tflite (tflite, 7624 bytes, 3 tensors)

MatMul_2 i1 [1, 64] scale=0.017154088 zero_point=0
00000000: 05f8 07fc d804 0d02 fa09 fbfb fe02 fb04
00000010: 29ff 011a 01ff fcfa 051f fb05 5d07 fcfc
00000020: 06c6 0405 1101 0002 fcf9 fd00 f709 fe2a
00000030: 00fb 1406 0bfa 057f fefe fefd 2a01 0303
0.08577044 -0.1372327 0.120078616 -0.06861635 -0.68616354 0.06861635 0.22300315 0.034308176
-0.102924526 0.15438679 -0.08577044 -0.08577044 -0.034308176 0.034308176 -0.08577044 0.06861635
0.70331764 -0.017154088 0.017154088 0.4460063 0.017154088 -0.017154088 -0.06861635 -0.102924526
0.08577044 0.5317767 -0.08577044 0.08577044 1.5953302 0.120078616 -0.06861635 -0.06861635
0.102924526 -0.9949371 0.06861635 0.08577044 0.2916195 0.017154088 0.0 0.034308176
-0.06861635 -0.120078616 -0.051462263 0.0 -0.15438679 0.15438679 -0.034308176 0.7204717
0.0 -0.08577044 0.34308177 0.102924526 0.18869497 -0.102924526 0.08577044 2.1785693
-0.034308176 -0.034308176 -0.034308176 -0.051462263 0.7204717 0.017154088 0.051462263 0.051462263

MatMul_1 i1 [64, 64] scale=0.010923134 zero_point=0
00000000: 0904 10fc 0915 fb09 042a 7305 0706 0013
00000010: 1611 0002 0302 0102 f80c 05fa 0703 02fe
00000020: 1003 fd0f 0c14 1417 fb13 0407 10fc 0bfb
00000030: fa06 0626 5108 fe11 18f6 07fe f103 fcfb
00000040: ff1f 1406 0510 f905 06eb c1fb 1705 04f8
00000050: 120e 1c02 1703 0ff8 0d0e f808 0412 1808
00000060: 0e20 f51c fa0d 0d0d fff6 05f8 0cfb 020a
00000070: 020c ffd9 cd1b 1a05 0406 fd0d 110b 0b05
00000080: f904 090b fe0e 091b fc25 5109 07fa 0415
00000090: 0b01 fe16 0913 fef6 0401 01fb fa07 0f01
000000a0: 0dfc fe08 1012 0b03 ff1c 160a 0ef5 0a03
000000b0: fc0f fc29 3800 0909 0707 f50a ff12 03fd
000000c0: 0afc 09f8 0808 0709 0603 01ff fef5 f6ff
000000d0: f9f5 0af9 f8fa f504 f5fb f808 f600 fefb
000000e0: faf5 0505 fd01 f7f5 0002 07fb 0201 f7f7
000000f0: fb06 f5fa 0003 fbf8 0100 00f6 f508 0609
0.098308206 0.043692537 0.17477015 -0.043692537 0.098308206 0.22938582 -0.05461567 0.098308206
0.043692537 0.45877165 1.2561604 0.05461567 0.07646194 0.06553881 0.0 0.20753954
0.24030896 0.18569328 0.0 0.021846268 0.032769404 0.021846268 0.010923134 0.021846268
-0.08738507 0.13107762 0.05461567 -0.06553881 0.07646194 0.032769404 0.021846268 -0.021846268
0.17477015 0.032769404 -0.032769404 0.16384701 0.13107762 0.21846268 0.21846268 0.2512321
-0.05461567 0.20753954 0.043692537 0.07646194 0.17477015 -0.043692537 0.12015448 -0.05461567
-0.06553881 0.06553881 0.06553881 0.4150791 0.88477385 0.08738507 -0.021846268 0.18569328
0.26215523 -0.10923134 0.07646194 -0.021846268 -0.16384701 0.032769404 -0.043692537 -0.05461567
-0.010923134 0.33861715 0.21846268 0.06553881 0.05461567 0.17477015 -0.07646194 0.05461567
0.06553881 -0.22938582 -0.68815744 -0.05461567 0.2512321 0.05461567 0.043692537 -0.08738507
0.19661641 0.15292388 0.30584776 0.021846268 0.2512321 0.032769404 0.16384701 -0.08738507
0.14200075 0.15292388 -0.08738507 0.08738507 0.043692537 0.19661641 0.26215523 0.08738507
0.15292388 0.3495403 -0.12015448 0.30584776 -0.06553881 0.14200075 0.14200075 0.14200075
-0.010923134 -0.10923134 0.05461567 -0.08738507 0.13107762 -0.05461567 0.021846268 0.10923134
0.021846268 0.13107762 -0.010923134 -0.42600223 -0.55707985 0.29492462 0.2840015 0.05461567
0.043692537 0.06553881 -0.032769404 0.14200075 0.18569328 0.12015448 0.12015448 0.05461567
-0.07646194 0.043692537 0.098308206 0.12015448 -0.021846268 0.15292388 0.098308206 0.29492462
-0.043692537 0.40415597 0.88477385 0.098308206 0.07646194 -0.06553881 0.043692537 0.22938582
0.12015448 0.010923134 -0.021846268 0.24030896 0.098308206 0.20753954 -0.021846268 -0.10923134
0.043692537 0.010923134 0.010923134 -0.05461567 -0.06553881 0.07646194 0.16384701 0.010923134
0.14200075 -0.043692537 -0.021846268 0.08738507 0.17477015 0.19661641 0.12015448 0.032769404
-0.010923134 0.30584776 0.24030896 0.10923134 0.15292388 -0.12015448 0.10923134 0.032769404
-0.043692537 0.16384701 -0.043692537 0.4478485 0.6116955 0.0 0.098308206 0.098308206
0.07646194 0.07646194 -0.12015448 0.10923134 -0.010923134 0.19661641 0.032769404 -0.032769404
0.10923134 -0.043692537 0.098308206 -0.08738507 0.08738507 0.08738507 0.07646194 0.098308206
0.06553881 0.032769404 0.010923134 -0.010923134 -0.021846268 -0.12015448 -0.10923134 -0.010923134
-0.07646194 -0.12015448 0.10923134 -0.07646194 -0.08738507 -0.06553881 -0.12015448 0.043692537
-0.12015448 -0.05461567 -0.08738507 0.08738507 -0.10923134 0.0 -0.021846268 -0.05461567
-0.06553881 -0.12015448 0.05461567 0.05461567 -0.032769404 0.010923134 -0.098308206 -0.12015448
0.0 0.021846268 0.07646194 -0.05461567 0.021846268 0.010923134 -0.098308206 -0.098308206
-0.05461567 0.06553881 -0.12015448 -0.06553881 0.0 0.032769404 -0.05461567 -0.08738507
0.010923134 0.0 0.0 -0.10923134 -0.12015448 0.08738507 0.06553881 0.098308206

MatMul i1 [64, 2] scale=0.04062309 zero_point=0
00000000: 0106 f7b3 0466 0b0f f19c ff71 0408 efa4
00000010: 07f6 066d 0663 05fa 09e7 f803 0e02 fc59
00000020: 0a7a eb37 fdc8 ec43 01e3 ee81 f7c8 08ef
00000030: faca fcc6 010b f200 f90e fd56 0a6f ffc0
00000040: ff69 fbab fdf3 f5b0 fe48 082f fd7e fe5c
00000050: 060f f32e f227 0402 f74f 0503 0310 070e
00000060: fb11 fb58 eb93 e329 0960 f8b0 f6bd f19c
00000070: 0162 0409 04f5 f7b5 f29f eda0 020e 02ef
0.04062309 0.24373855 -0.36560783 -3.127978 0.16249236 4.143555 0.446854 0.6093464
-0.6093464 -4.0623093 -0.04062309 4.5904093 0.16249236 0.32498473 -0.6905925 -3.7373245
0.28436163 -0.40623093 0.24373855 4.427917 0.24373855 4.021686 0.20311546 -0.24373855
0.36560783 -1.0155773 -0.32498473 0.12186927 0.56872326 0.08124618 -0.16249236 3.6154552
0.40623093 4.956017 -0.8530849 2.23427 -0.12186927 -2.274893 -0.81246185 2.7217472
0.04062309 -1.1780696 -0.73121566 -5.1591325 -0.36560783 -2.274893 0.32498473 -0.6905925
-0.24373855 -2.193647 -0.16249236 -2.3561392 0.04062309 0.446854 -0.56872326 0.0
-0.28436163 0.56872326 -0.12186927 3.4935858 0.40623093 4.509163 -0.04062309 -2.5998778
-0.04062309 4.2654247 -0.20311546 -3.4529626 -0.12186927 -0.5281002 -0.446854 -3.2498474
-0.08124618 2.9248626 0.32498473 1.9092853 -0.12186927 5.1185093 -0.08124618 3.7373245
0.24373855 0.6093464 -0.5281002 1.8686622 -0.56872326 1.5843005 0.16249236 0.08124618
-0.36560783 3.2092242 0.20311546 0.12186927 0.12186927 0.64996946 0.28436163 0.56872326
-0.20311546 0.6905925 -0.20311546 3.574832 -0.8530849 -4.427917 -1.1780696 1.6655468
0.36560783 3.8998168 -0.32498473 -3.2498474 -0.40623093 -2.7217472 -0.6093464 -4.0623093
0.04062309 3.981063 0.16249236 0.36560783 0.16249236 -0.446854 -0.36560783 -3.046732
-0.56872326 -3.94044 -0.7718387 -3.8998168 0.08124618 0.56872326 0.08124618 -0.6905925
